trained_model/mocap_rnn.pth (torch_old, 390860 bytes, 19 tensors)

rnn1.weight_ih f4 [300, 4]
0.09919864 0.08885118 0.15262835 -0.06408332 0.03625362 0.13271847 0.024332061 0.010710509
0.13027331 0.08386715 0.0446249 0.0064388122 0.031971656 0.081592724 0.05659498 0.034356788
0.009081038 -0.03856315 -0.01282445 -0.047110118 0.11158949 0.017566526 0.14311929 0.0078350315
0.054210894 0.06973447 -0.10405958 0.11836278 -0.028619803 0.021571528 -0.03188124 0.10856048
0.018832628 0.029265005 -0.037326835 0.10073869 -0.0007884411 -0.07912949 0.026359057 -0.03569716
-0.038703717 -0.079525106 0.09775509 0.059674595 -0.15623754 0.036999527 -0.06393275 0.026656331
-0.069170825 -0.039149273 0.01887396 0.011239211 0.022720233 0.0263505 -0.05339678 0.16835108
0.046445336 0.09335415 -0.09590173 0.093977444 0.09645702 -0.00837153 -0.017444499 0.025952438
0.17717907 -0.049670584 -0.008549106 -0.08414667 0.06566422 -0.059151586 0.0118558165 0.20277373
0.007108181 0.058813732 -0.082143724 0.06465182 -0.04391215 0.09385714 -0.04485749 0.009358907
-0.055144712 0.100614175 -0.13026126 0.09558934 0.12700967 0.029842302 0.04096862 -0.11043541
0.06692489 0.04618047 -0.054789364 0.028904885 0.12981547 -0.07511438 0.030069811 0.06632455
-0.061449505 -0.009245108 -0.13286819 -0.054698214 -0.051599875 0.026828593 0.05627613 0.09678074
0.15244848 -0.07966023 0.019088468 -0.07033876 0.039594017 -0.025501193 0.054331135 -0.0019300758
0.007980393 0.047080282 0.07399047 -0.09461427 -0.11000876 0.08483332 0.047051236 0.06190526
-0.0803771 -0.011500146 -0.0471409 -0.009538644 -0.103784874 0.00013860491 -0.06943137 0.074611805
0.12356076 -0.0020729925 0.14698432 -0.11115063 -0.057962462 0.037787005 0.06941479 0.105836645
-0.12486859 -0.028443478 0.0001291692 0.13992614 0.03762828 0.021181455 0.052289963 0.018957729
-0.086265296 -0.04240896 0.049277086 0.013385341 -0.08084228 -0.03948766 0.027351944 0.10880374
-0.04887829 0.008472582 0.100538224 0.032597017 0.030036634 0.074708566 0.09429283 -0.036891267
-0.10748016 0.07107345 0.087858774 -0.044433743 0.029762808 -0.02142651 0.0073284977 0.12287895
0.04474406 0.09671646 0.07309142 0.06679366 -0.011769022 -0.0733736 0.09980567 -0.08084606
-0.08406945 -0.0108938245 -0.07520696 0.084946364 -0.101525225 0.05974205 -0.10124756 0.04267374
0.056535207 0.033641573 -0.0058326353 0.10074575 0.036893446 -0.057336207 0.041129086 -0.005117119
0.060489584 0.08626173 0.07609714 -0.014724707 -0.024146609 0.010581505 -0.05210666 0.050003238
-0.08325311 -0.066395685 0.018089773 -0.026670732 0.11815052 -0.03559713 0.0572669 -0.046417274
0.045810524 0.05788164 -0.056825317 0.011725523 0.011800896 0.07614062 -0.07487734 0.083404586
-0.04166624 -0.07917878 -0.124812596 0.13045797 0.07490141 0.047832806 0.045615766 -0.014577434
0.018149406 0.027245754 -0.0028804212 0.02227054 0.12512301 0.06187479 0.08060239 0.0640941
-0.12340755 0.061190378 0.012808251 0.15148588 0.09227873 -0.05431875 -0.030641442 -0.04205202
-0.05716187 0.08965485 0.00013363856 -0.038372282 0.07076685 0.028962113 0.08769227 -0.02909918
-0.015628187 0.11672709 -0.09927195 0.07836447 -0.09840955 -0.087360114 0.035439007 -0.03974249
00000000: a828 cb3d 9cf7 b53d 9b4a 1c3e 1e3e 83bd
00000010: ad7e 143d 5ae7 073e 0854 c73c 217b 2f3c
00000020: 5e66 053e 8ac2 ab3d 99c8 363d acfc d23b
00000030: b6f4 023d 161a a73d 23d0 673d b4b9 0c3d
00000040: a2c8 143c 65f4 1dbd a41d 52bc 8af6 40bd
00000050: 0889 e43d ade7 8f3c dd8d 123e 815e 003c
00000060: 3e0c 5e3d f2d0 8e3d 301d d5bd 2f68 f23d
00000070: 1474 eabc c6b6 b03c e795 02bd f554 de3d
00000080: e246 9a3c 2abd ef3c 06e4 18bd 1650 ce3d
00000090: 63af 4eba a40e a2bd f3ee d73c 2f37 12bd
000000a0: ca87 1ebd 0fde a2bd d233 c83d 596d 743d
000000b0: bcfc 1fbe d18c 173d 2cef 82bd 615e da3c
000000c0: 6fa9 8dbd fd5a 20bd 909d 9a3c ab24 383c
000000d0: c81f ba3c 01dd d73c 95b6 5abd 3a64 2c3e
000000e0: 773d 3e3d 7630 bf3d 2068 c4bd 3f77 c03d
000000f0: 428b c53d be28 09bc c4e7 8ebc 359a d43c
00000100: 6e6e 353e 6273 4bbd 8d11 0cbc 1755 acbd
00000110: f67a 863d ef48 72bd e63e 423c eba3 4f3e
00000120: beeb e83b abe6 703d f83a a8bd 2c68 843d
00000130: 3add 33bd 2c38 c03d 7dbc 37bd 1a56 193c
00000140: 6cdf 61bd ce0e ce3d 3563 05be 58c4 c33d
00000150: d30e 023e d877 f43c b6ce 273d f62b e2bd
00000160: eb0f 893d bc27 3d3d d06a 60bd f0c9 ec3c
00000170: 59ee 043e 91d5 99bd f754 f63c 2ad5 873d
00000180: 7ab2 7bbd cb78 17bc 990e 08be 3c0b 60bd
00000190: 645a 53bd a3c7 db3c cd81 663d fb34 c63d
000001a0: 741b 1c3e e724 a3bd 6b5f 9c3c c50d 90bd
000001b0: 562d 223d e1e7 d0bc 538a 5e3d 99fa fcba
000001c0: 32c0 023c 41d7 403d 5188 973d 20c5 c1bd
000001d0: 464c e1bd 17bd ad3d ccb8 403d 5f90 7d3d
000001e0: c09c a4bd 1c6b 3cbc d116 41bd f947 1cbc
000001f0: 2a8d d4bd 7956 1139 0932 8ebd 13ce 983d
00000200: 6c0d fd3d 0bdb 07bb 0f83 163e f1a2 e3bd
00000210: 0c6a 6dbd 8cc6 1a3d 5729 8e3d e2c0 d83d
00000220: 1abb ffbd 4c02 e9bc 9871 0739 cc48 0f3e
00000230: 1d20 1a3d bb84 ad3c 002e 563d 3d4d 9b3c
00000240: dcab b0bd 05b5 2dbd c5d6 493d 304e 5b3c
00000250: a390 a5bd d0bd 21bd 2f11 e03c 7fd4 de3d
00000260: 9a34 48bd 96d0 0a3c fce6 cd3d 7384 053d
00000270: 630f f63c ce00 993d 991c c13d 4c1b 17bd
00000280: 8f1e dcbd f58e 913d 4def b33d 2800 36bd
00000290: 22d1 f33c a686 afbc e523 f03b f5a7 fb3d
000002a0: 8c45 373d 4813 c63d f4b0 953d 1dcb 883d
000002b0: dbd2 40bc e644 96bd ea66 cc3d 9e92 a5bd
000002c0: 9b2c acbd 037c 32bc 1b06 9abd 5cf8 ad3d
000002d0: 75ec cfbd 14b4 743d e15a cfbd a9ca 2e3d
000002e0: 7691 673d bfcb 093d b11f bfbb ca53 ce3d
000002f0: 951d 173d 5fd9 6abd f976 283d 81ad a7bb
00000300: edc3 773d fda9 b03d d1d8 9b3d e63f 71bc
00000310: 1ccf c5bc 0c5e 2d3c cb6d 55bd 32d0 4c3d
00000320: 9b80 aabd 76fa 87bd 0131 943c 947c dabc
00000330: e6f8 f13d 4cce 11bd b290 6a3d 0a20 3ebd
00000340: d1a3 3b3d 4c15 6d3d aac1 68bd 681c 403c
00000350: 8c58 413c 9def 9b3d 4a59 99bd 06d0 aa3d
00000360: 38aa 2abd 7c28 a2bd bf9d ffbd c696 053e
00000370: e965 993d 55ec 433d 99d7 3a3d 31d6 6ebc
00000380: 10ae 943c 7d32 df3c 73c5 3cbb b570 b63c
00000390: 3f20 003e 6b70 7d3d de12 a53d c443 833d
000003a0: 19bd fcbd c3a2 7a3d b3d9 513c 1d1f 1b3e
000003b0: a1fc bc3d 567d 5ebd c303 fbbc bd3e 2cbd
000003c0: 9122 6abd f69c b73d 5421 0c39 412c 1dbd
000003d0: 36ee 903d f441 ed3c 0198 b33d 6761 eebc
000003e0: af06 80bc 9d0e ef3d 184f cbbd 8d7d a03d
000003f0: f28a c9bd dce9 b2bd 7e28 113d 05c9 22bd

rnn1.weight_hh f4 [300, 100]
-0.036771744 -0.029390395 0.033016913 0.06732931 0.03354755 -0.07889295 0.009942573 -0.028556185
-0.0041674417 -0.007235638 -0.038180977 -0.08553492 -0.048970334 0.05060415 0.030488985 0.08096186
-0.0031557006 -0.0438132 -0.12875174 -0.0066647185 0.03489162 0.024399571 -0.088899806 -0.060762443
-0.010993943 -0.044798497 -0.06005177 -0.06777286 0.09089522 0.002737885 -0.0021038323 -0.035629936
-0.011082181 0.007494459 -0.040172454 -0.01761774 -0.054872625 -0.008534024 0.07178457 0.10223157
-0.03754294 -0.109203205 -0.004419373 -0.098360464 0.05197363 -0.012094838 0.024531292 0.08146319
-0.11098286 0.0642191 0.02932692 0.0362196 0.08871598 0.02063832 0.047187604 0.10523117
-0.06630282 -0.05218704 -0.04361409 0.11684058 -0.044839665 0.023071228 0.06597451 -0.05623278
0.021506937 -0.0511056 0.08837598 0.103090025 -0.03142095 0.09475322 0.03317325 -0.029424207
0.06153067 0.01729831 0.018347846 -0.023563044 0.037097905 -0.016097412 0.11000823 0.029522669
0.11828318 -0.032838255 0.07906744 -0.078027874 -0.026326658 0.011114936 0.028058775 0.07268137
0.044688713 -0.012286324 0.058474105 0.027874624 -0.074398115 0.096278585 0.06411022 -0.041892238
0.066746056 0.08521934 0.0315245 -0.104414605 -0.12303905 0.05614513 0.04451282 -0.0026439624
-0.020257622 -0.091235235 -0.08604301 -0.015003272 -0.0019161575 0.096112825 0.09387205 -0.015521565
0.07681368 -0.05573589 -0.079745874 -0.12978393 0.027251553 -0.12519297 0.13139492 0.002826091
-0.001969387 -0.007475586 0.10113321 0.035613034 -0.047453176 0.008970929 0.03312863 -0.017406145
0.048233166 -0.0487259 -0.0011696827 0.025783014 0.01243926 -0.007959341 -0.026879605 0.07621205
0.032185186 0.054086566 0.05211471 -0.024328237 -0.0011698095 0.105533265 0.07197886 -0.02466572
-0.06774841 -0.10536821 0.11270018 0.064843774 -0.056334797 -0.038036328 -0.017480208 -0.016265709
0.060114134 0.10360654 -0.119549334 0.050919063 0.010927897 0.045137167 0.017983863 -0.060484756
0.10239271 0.08000273 0.022842772 0.063564956 0.12245833 0.001792401 -0.023167046 -0.11199782
0.05098843 -0.108623326 0.050427478 0.004752318 0.08859734 0.04392129 0.091762215 -0.056354526
-0.028495694 0.018709674 0.034956276 0.08056595 -0.1411156 -0.014766145 0.13916549 0.06277196
0.08722562 -0.013975306 -0.021819454 -0.053702164 -0.106527105 -0.08808149 -0.02446287 -0.058159355
0.007031312 -0.082825735 0.045241855 0.020017631 -0.03252756 0.039893858 0.07339116 0.039937876
-0.13867734 -0.08160758 -0.05458811 -0.026145639 -0.045491297 -0.036895093 -0.012477349 0.036886115
-0.040585276 -0.061577983 -0.045156848 0.089544006 0.0133162895 0.067258656 0.087838896 0.0010235447
0.019736536 -0.052011885 0.07681457 0.004900948 0.026862621 0.12199245 0.036456995 -0.00327463
0.038648233 0.10831828 0.067689866 0.0052264775 -0.11881939 -0.07976262 -0.0861218 -0.034667917
-0.05042831 -0.07531547 -0.0030425068 0.047916416 0.019760065 0.096180566 -0.0262671 0.09079368
0.04063803 -0.084192395 0.09282274 -0.05961446 0.014670254 -0.099708825 0.043424796 -0.005832895
-0.10758693 -0.07026532 0.05615751 0.058437534 0.023255818 -0.008839457 0.038801234 0.056351785
00000000: f89d 16bd 20c4 f0bc be3c 073d f3e3 893d
00000010: 2869 093d a192 a1bd 2ce6 223c a9ee e9bc
00000020: 098f 88bb ee18 edbb a863 1cbd ef2c afbd
00000030: 1e95 48bd 4c46 4f3d 09c4 f93c 55cf a53d
00000040: dfcf 4ebb 7875 33bd 7fd7 03be b663 dabb
00000050: 84ea 0e3d 9ce1 c73c 1a11 b6bd 0ae2 78bd
00000060: f01f 34bc a17e 37bd d8f8 75bd 7fcc 8abd
00000070: 4627 ba3d 176e 333b 73e0 09bb b2f0 11bd
00000080: 0992 35bc 1494 f53b df8b 24bd 1453 90bc
00000090: 1ec2 60bd 4ad2 0bbc ca03 933d c95e d13d
000000a0: a0c6 19bd eea5 dfbd 63d0 90bb 3671 c9bd
000000b0: 4de2 543d 6d29 46bc d9f5 c83c 2cd6 a63d
000000c0: fb4a e3bd 4e85 833d 023f f03c 015b 143d
000000d0: b9b0 b53d b211 a93c ca47 413d 7183 d73d
000000e0: c6c9 87bd 14c2 55bd b0a4 32bd 1d4a ef3d
000000f0: cca9 37bd dfff bc3c a51d 873d 5854 66bd
00000100: 512f b03c 1b54 51bd 77fe b43d dd20 d33d
00000110: 41b3 00bd fa0d c23d ace0 073d 090b f1bc
00000120: 9507 7c3d 2fb5 8d3c 394e 963c 4907 c1bc
00000130: f9f3 173d b8de 83bc ff4b e13d 86d9 f13c
00000140: 743e f23d 6881 06bd 1cee a13d 14cd 9fbd
00000150: 01ab d7bc 6c1b 363c 84db e53c f8d9 943d
00000160: 830b 373d 944c 49bc 8b82 6f3d 5359 e43c
00000170: 0a5e 98bd b52d c53d 384c 833d 3297 2bbd
00000180: 28b2 883d 7a87 ae3d d61f 013d 53d7 d5bd
00000190: e6fb fbbd 70f8 653d 1353 363d 5446 2dbb
000001a0: 50f3 a5bc 8ad9 babd 5137 b0bd 49d0 75bc
000001b0: 9427 fbba cdd6 c43d fd3f c03d 2a4e 7ebc
000001c0: 7e50 9d3d 514b 64bd ce51 a3bd 14e6 04be
000001d0: a63e df3c 9632 00be 648c 063e f035 393b
000001e0: d510 01bb c3f5 f4bb ee1e cf3d f9de 113d
000001f0: 435e 42bd cefa 123c e3b1 073d 5597 8ebc
00000200: 2490 453d cf94 47bd 0a50 99ba e636 d33c
00000210: 0ace 4b3c e567 02bc 9e32 dcbc 1015 9c3d
00000220: 9dd4 033d e089 5d3d 3c76 553d 034c c7bc
00000230: 4b54 99ba d321 d83d a769 933d c40f cabc
00000240: aebf 8abd 4acb d7bd 5acf e63d d0cc 843d
00000250: 51bf 66bd fbcb 1bbd a732 8fbc aa3f 85bc
00000260: 3d3a 763d aa2f d43d 48d6 f4bd 8290 503d
00000270: ec0a 333c c0e1 383d e552 933c ddbe 77bd
00000280: 45b3 d13d 79d8 a33d c420 bb3c 582e 823d
00000290: 6fcb fa3d ffee ea3a d1c8 bdbc 1d5f e5bd
000002a0: 3ed9 503d e875 debd 0b8d 4e3d 55b9 9b3b
000002b0: 8672 b53d d0e6 333d d4ed bb3d 01d4 66bd
000002c0: cd6f e9bc 0845 993c 502e 0f3d c3ff a43d
000002d0: 9c80 10be b3ed 71bc 6681 0e3e 968e 803d
000002e0: 59a3 b23d aff8 64bc b6be b2bc cdf6 5bbd
000002f0: e22a dabd 1164 b4bd 5b66 c8bc 8138 6ebd
00000300: ec66 e63b 8aa0 a9bd 864f 393d 04fc a33c
00000310: 9e3b 05bd be67 233d 1b4e 963d e695 233d
00000320: 6f01 0ebe e021 a7bd c897 5fbd 612f d6bc
00000330: 1555 3abd 4f1f 17bd cb6d 4cbc e515 173d
00000340: bf3c 26bd 3239 7cbd 63f6 38bd d962 b73d
00000350: 912c 5a3c e8be 893d e1e4 b33d 7628 863a
00000360: 84ae a13c 6a0a 55bd f550 9d3d 2298 a03b
00000370: 000f dc3c 2dd7 f93d ee53 153d 2d9b 56bb
00000380: 9c4d 1e3d f9d5 dd3d fca0 8a3d df42 ab3b
00000390: 9557 f3bd 965a a3bd a060 b0bd f2ff 0dbd
000003a0: ea8d 4ebd ff3e 9abd cb64 47bb 0144 443d
000003b0: dcdf a13c 51fa c43d 1a2e d7bc 09f2 b93d
000003c0: 1074 263d 106d acbd d919 be3d 4b2e 74bd
000003d0: 815b 703c 2434 ccbd 33de 313d df21 bfbb
000003e0: 8956 dcbd 44e7 8fbd 6b05 663d 325c 6f3d
000003f0: fc82 be3c 5fd3 10bc 0bee 1e3d 21d1 663d

rnn1.bias_ih f4 [300]
-0.017814439 0.14474177 0.002446931 0.15836175 0.050944332 0.10602631 0.06887628 0.09367671
0.0028168513 0.054150388 0.019569935 0.08634444 -0.036537796 0.11484403 -0.014618588 -0.041015666
0.085348986 -0.08881118 0.05384032 -0.04316547 0.08493897 -0.05591074 -0.02960316 0.015259091
-0.059066318 0.071167454 -0.0076155337 0.07699519 -0.019841287 -0.032558657 0.0055381954 0.09918692
0.0036018414 -0.070515074 0.103408225 0.046984892 0.085237265 -0.04866992 -0.023540834 0.044872764
0.030570785 0.0564246 0.03975683 0.018752668 -0.0049554743 -0.037674833 0.12148249 0.041603707
0.075426064 -0.03984358 0.05843984 0.05814378 0.045434214 0.11551998 0.085111395 -0.073748685
0.087185815 0.028327264 -0.0040706284 0.021845194 0.02691711 0.09508036 -0.058416273 0.059249166
0.08671353 -0.04519347 0.094621554 0.046292696 -0.038488764 -0.005890882 0.07114531 0.12825696
-0.025639515 0.034422155 0.10664788 0.022335317 0.1290705 -0.039929442 0.07245241 0.04458457
0.0068638762 -0.02720285 0.05790139 0.12660035 0.012302905 -0.050177343 0.0853023 0.023358695
0.021045407 0.09313091 -0.037171736 -0.030545378 0.054762244 0.12801734 0.038588483 -0.062333874
0.107846394 0.0069410694 0.07012303 0.078832 -0.0031214994 -0.11172796 0.019049339 -0.026644591
0.048294764 -0.04003701 -0.0021046512 -0.05761915 -0.010843276 -0.11430635 0.013896523 0.07592486
-0.012410425 -0.042751703 -0.041912653 -0.08036372 -0.119168885 0.037544176 -0.022312239 -0.055790935
-0.08640944 -0.051708475 -0.014760989 -0.064136915 -0.08675489 -0.15635765 0.012781184 0.017112808
-0.027849471 -0.027334912 0.041246004 0.07897599 -0.016650682 0.03419913 -0.057579044 -0.12718098
-0.06978004 -0.07353046 -0.089140184 -0.08607219 0.040037017 -0.0055592945 -0.075921126 -0.06020354
-0.013602309 -0.049354427 0.005818741 -0.012657465 -0.13748732 -0.07797495 0.07420777 -0.105226
0.020743845 -0.031758092 -0.12113923 0.0050569777 -0.06685496 0.007258019 -0.03786737 -0.0798663
-0.08242064 -0.15680787 -0.046836413 -0.028790334 -0.14903474 -0.042058192 -0.14424865 -0.046338595
-0.034235563 -0.022702357 -0.035912305 0.05004242 -0.048215106 -0.13667053 -0.06457233 -0.026090475
-0.08409051 -0.050217185 -0.0076142712 -0.06292244 -0.12050049 0.16585478 0.023084002 -0.050671298
-0.007648564 -0.062315542 -1.599329e-05 -0.12931515 -0.116562136 -0.16364637 -0.14002027 -0.139093
-0.05596793 -0.11477771 -0.040593833 -0.016621288 -0.14148681 -0.053834364 0.015486017 -0.1428691
-0.052851602 0.07210665 -0.0961612 0.034535326 0.121498026 0.025516603 -0.074698426 0.062788635
-0.017237611 0.12441523 0.06254029 -0.10450863 0.008291954 -0.029097196 -0.024122484 -0.02187615
-0.121686056 0.071830496 0.07440812 0.090717524 0.10238629 0.01703621 0.10224425 0.051894322
0.16144074 0.04199171 -0.021294193 -0.02852504 -0.06412737 0.017090281 -0.12633498 -0.05555644
0.038274784 0.04640341 -0.049700998 0.00431582 -0.0008660339 0.06389233 -0.09130079 -0.06189546
-0.106376275 0.056895953 -0.047758162 -0.06429758 -0.0046713026 -0.06669664 0.019342436 -0.059843417
-0.07633166 0.05017368 -0.020359837 0.0070943944 0.016890999 0.09386546 -0.082375646 0.016869245
00000000: 96ef 91bc 3037 143e b15c 203b 9529 223e
00000010: 01ab 503d 5224 d93d 020f 8d3d 93d9 bf3d
00000020: ec9a 383b cccc 5d3d 2151 a03c 5bd5 b03d
00000030: a8a8 15bd 5933 eb3d cd82 6fbc 0b00 28bd
00000040: 73cb ae3d a3e2 b5bd ab87 5c3d 47ce 30bd
00000050: 7cf4 ad3d a902 65bd 5482 f2bc 4401 7a3c
00000060: 86ef 71bd 3ec0 913d ba8b f9bb a7af 9d3d
00000070: 328a a2bc 3a5c 05bd c079 b53b 8322 cb3d
00000080: df0c 6c3b 356a 90bd b1c7 d33d 3b73 403d
00000090: e090 ae3d 1c5a 47bd b5d8 c0bc 81cc 373d
000000a0: 956f fa3c 7b1d 673d 0fd8 223d 329f 993c
000000b0: 8861 a2bb ed50 1abd d0cb f83d a668 2a3d
000000c0: fb78 9a3d 0633 23bd 9d5e 6f3d 2c28 6e3d
000000d0: 3a19 3a3d bd95 ec3d e24e ae3d 8d09 97bd
000000e0: 7a8e b23d 940e e83c e862 85bb b1f4 b23c
000000f0: 4581 dc3c 7eb9 c23d e745 6fbd 41af 723d
00000100: dd96 b13d ca1c 39bd f2c8 c13d 699d 3d3d
00000110: 65a6 1dbd 4d08 c1bb a2b4 913d cb55 033e
00000120: f609 d2bc 3ffe 0c3d 346a da3d 8ef8 b63c
00000130: 0f2b 043e 0e8d 23bd ee61 943d 4f9e 363d
00000140: 5eea e03b 83d8 debc 022a 6d3d 86a3 013e
00000150: 2092 493c c286 4dbd f9b2 ae3d bc5a bf3c
00000160: 6b67 ac3c 6bbb be3d 6441 18bd 4d3a fabc
00000170: 604e 603d fa16 033e f50e 1e3d ce51 7fbd
00000180: 92de dc3d e971 e33b aa9c 8f3d ac72 a13d
00000190: 1292 4cbb a1d1 e4bd 5c0d 9c3c c245 dabc
000001a0: bbd0 453d d9fd 23bd 30ee 09bb 0f02 6cbd
000001b0: ffa7 31bc 7319 eabd 3eae 633c 7e7e 9b3d
000001c0: 1855 4bbc 691c 2fbd 9aac 2bbd bc95 a4bd
000001d0: d10e f4bd ecc7 193d 28c8 b6bc 0985 64bd
000001e0: 6ff7 b0bd 44cc 53bd 13d8 71bc 375a 83bd
000001f0: 8cac b1bd 381c 20be 2c68 513c 2930 8c3c
00000200: 9324 e4bc 77ed dfbc 92f1 283d 2abe a13d
00000210: 0367 88bc 6314 0c3d 01d8 6bbd bb3b 02be
00000220: d6e8 8ebd 2397 96bd 218f b6bd 9e46 b0bd
00000230: dbfd 233d be2a b6bb 897c 9bbd fd97 76bd
00000240: 38dc 5ebc de27 4abd 23ab be3b 4261 4fbc
00000250: 7ac9 0cbe 55b1 9fbd 3efa 973d bb80 d7bd
00000260: ffee a93c c614 02bd d817 f8bd 01b5 a53b
00000270: 41eb 88bd add4 ed3b d11a 1bbd f190 a3bd
00000280: 27cc a8bd 3e92 20be 8ad7 3fbd b5d9 ebbc
00000290: 909c 18be 3645 2cbd ebb5 13be 8acd 3dbd
000002a0: 973a 0cbd 4bfa b9bc c818 13bd 48f9 4c3d
000002b0: 347d 45bd 5cf3 0bbe 7f3e 84bd b1bb d5bc
000002c0: a537 acbd 89b0 4dbd 2381 f9bb 7bdd 80bd
000002d0: f6c8 f6bd d6d5 293e a91a bd3c b58c 4fbd
000002e0: cea0 fabb 953e 7fbd 5429 86b7 316b 04be
000002f0: 21b8 eebd ea92 27be 7961 0fbe 656e 0ebe
00000300: a13e 65bd 9310 ebbd b845 26bd 5e29 88bc
00000310: ebe1 10be 6c81 5cbd 10b9 7d3c 474c 12be
00000320: ec7a 58bd a7ac 933d 2af0 c4bd ea74 0d3d
00000330: f5d3 f83d 3208 d13c 7dfb 98bd 5497 803d
00000340: e435 8dbc 69cd fe3d 2015 803d 9f08 d6bd
00000350: fada 073c 3e5d eebc 849c c5bc 9d35 b3bc
00000360: 8a36 f9bd de1b 933d 4963 983d 1cca b93d
00000370: e7af d13d 868f 8b3c 6f65 d13d 248f 543d
00000380: b950 253e 80ff 2b3d 2971 aebc 58ad e9bc
00000390: 3655 83bd eb00 8c3c f55d 01be 268f 63bd
000003a0: 05c6 1c3d 8111 3e3d 4693 4bbd b96b 8d3b
000003b0: 8d06 63ba fbd9 823d e9fb babd 1886 7dbd
000003c0: cedb d9bd bb0b 693d 109e 43bd 73ae 83bd
000003d0: ba11 99bb 3f98 88bd 0774 9e3c 5f1e 75bd
000003e0: c653 9cbd eb82 4d3d acc9 a6bc 1878 e83b
000003f0: fe5e 8a3c 893c c03d 90b4 a8bd 5f31 8a3c

rnn1.bias_hh f4 [300]
0.077408694 0.02310939 0.09732553 0.08525904 -0.05752336 0.028968768 -0.018703245 0.07754285
0.07686811 0.009943367 -0.032134145 0.11670106 0.12854113 0.058429707 -0.03442922 -0.09007359
-0.01900249 -0.01959771 0.089103766 -0.06024659 -0.016685478 -0.05769765 -0.0026848882 0.06916143
0.054861754 0.0719901 0.094641164 0.116977826 -0.00023131807 0.03002427 0.04335581 0.13693844
-0.015882961 -0.045283932 0.061376806 -0.050909888 -0.0066844663 -0.017204987 -0.07936195 0.033189464
-0.0020348416 0.0756595 -0.0022561483 0.11031608 -0.035739575 0.0064590974 0.083438024 0.12218366
0.08355177 0.04583475 -0.047986627 -0.10359427 -0.06198287 -0.040033355 -0.004526395 0.06344862
0.0730591 0.031267107 -0.023263153 0.11589421 0.029411783 0.0040568705 0.0024935913 -0.0021818923
0.07022841 0.09361265 0.06055825 0.048405852 0.09901364 0.13700381 0.017124219 0.059290804
0.07163576 0.09566381 0.0846707 0.038588893 0.08787238 0.03768707 0.085157156 0.120579235
0.022324607 0.022552436 0.110897854 0.07134078 0.055845354 0.00852967 0.01614831 -0.049208935
0.0367976 -0.025602294 0.045783065 0.09206143 0.013157671 0.029709134 -0.008478547 -0.08284276
-0.015068168 -0.040852513 -0.017141277 -0.032622624 0.002932764 0.007107871 -0.061158024 -0.10579938
0.013635417 -0.03377554 -0.04895096 -0.027226565 -0.14005227 0.012700925 0.15440439 0.0758045
0.018727394 -0.10201539 -0.117027365 -0.0013135883 -0.035385024 0.17237124 -0.10263759 -0.0725884
-0.11936394 -0.101821005 -0.16788933 -0.015663816 0.00049759186 -0.12195884 -0.0062227687 0.035817478
-0.09697238 -0.058746703 0.013939005 0.06905542 -0.06208903 -0.097867616 0.09116252 -0.08991711
-0.049265593 -0.14529617 -0.01841967 -0.0421431 0.039415326 -0.06994517 -0.029575571 -0.084700555
0.0025840378 -0.14162888 -0.022425195 -0.106462084 -0.07216145 0.017759033 -0.028236331 -0.030414559
-0.12226744 -0.113287084 -0.11319083 0.016701592 -0.034232788 -0.08155237 0.0012990236 -0.14325188
-0.0962369 0.020112704 -0.09877988 0.028490765 -0.13169925 -0.092963144 0.016893616 -0.006233668
-0.0017031247 -0.03277538 -0.12997732 -0.041037314 -0.03334261 -0.1223973 -0.09410437 -0.0035405327
-0.03568828 -0.14372183 -0.047469072 -0.12296223 -0.046964705 0.03803275 0.054398235 -0.12644431
-0.105589814 -0.05053413 -0.042917095 -0.032285742 -0.021167269 -0.07923581 -0.004054428 -0.039917298
0.025393667 -0.14415883 -0.034624137 0.043581 -0.113669686 -0.09342069 -0.0117761865 -0.080024175
-0.023359338 -0.04164063 0.03078474 0.13548496 0.11069119 -0.10124803 -0.012801621 0.06072307
0.15516399 0.059895698 -0.090569586 -0.12892738 0.12752335 -0.02351266 0.05047667 -0.0040200492
-0.07984232 -0.004815006 0.116809495 0.10360245 -0.108406305 -0.087810576 0.011619461 0.010576445
0.122465044 -0.044779208 0.06858428 -0.12847874 -0.007511656 0.034865286 0.029536003 -0.11400322
0.03553843 -0.09357833 0.031773116 0.1358974 0.07462883 0.04554197 -0.06616769 -0.008881359
0.0070073963 -0.06880197 -0.122341454 -0.016218362 0.08020422 -0.029562393 0.08116479 0.08567882
0.0029875147 0.077375665 -0.04782536 0.008604917 0.05530641 0.1330555 -0.056121837 -0.028583484
00000000: 7388 9e3d e74f bd3c 9c52 c73d 4b9c ae3d
00000010: 9d9d 6bbd e94f ed3c 8c37 99bc c9ce 9e3d
00000020: 076d 9d3d 81e9 223c 189f 03bd f700 ef3d
00000030: 49a0 033e fd53 6f3d a705 0dbd 8178 b8bd
00000040: 1cab 9bbc 608b a0bc 097c b63d 21c5 76bd
00000050: fcaf 88bc 5f54 6cbd f3f4 2fbb 82a4 8d3d
00000060: b8b6 603d 8c6f 933d 3ad3 c13d 1292 ef3d
00000070: f98d 72b9 75f5 f53c dd95 313d 9739 0c3e
00000080: fc1c 82bc a57b 39bd 3f66 7b3d e386 50bd
00000090: 5e09 dbbb 79f1 8cbc 8588 a2bd adf1 073d
000000a0: fa5a 05bb 5ef3 9a3d e3db 13bb 66ed e13d
000000b0: a963 12bd d6a6 d33b 8ee1 aa3d 6d3b fa3d
000000c0: 311d ab3d 38bd 3b3d a08d 44bd 3c29 d4bd
000000d0: c0e1 7dbd 04fa 23bd 2752 94bb 5af1 813d
000000e0: 02a0 953d f011 003d 5e92 bebc f259 ed3d
000000f0: fbf0 f03c 7fef 843b 856b 233b 14fe 0ebb
00000100: ead3 8f3d fdb7 bf3d ed0b 783d 3745 463d
00000110: aac7 ca3d ba4a 0c3e 1748 8c3c eada 723d
00000120: c5b5 923d 63eb c33d d567 ad3d 630f 1e3d
00000130: 6ff6 b33d c25d 1a3d e066 ae3d 3ff2 f63d
00000140: 18e2 b63c e3bf b83c 6a1e e33d 1d1b 923d
00000150: 19be 643d 07c0 0b3c 7649 843c 4f8f 49bd
00000160: 15b9 163d e7bb d1bc 0687 3b3d b48a bc3d
00000170: 4693 573c 9260 f33c 9be9 0abc 77a9 a9bd
00000180: 7ae0 76bc f754 27bd dd6b 8cbc 4d9f 05bd
00000190: 9d33 403b 25e9 e83b d680 7abd 58ad d8bd
000001a0: 1667 5f3c 3858 0abd cd80 48bd 3f0a dfbc
000001b0: dd69 0fbe 8a17 503c 2f1c 1e3e 643f 9b3d
000001c0: 316a 993c 72ed d0bd 0bac efbd b62c acba
000001d0: e3ef 10bd 1682 303e a833 d2bd 3aa9 94bd
000001e0: 1575 f4bd 8887 d0bd 2eeb 2bbe 6751 80bc
000001f0: d370 023a 8ec5 f9bd 5ee8 cbbb 59b5 123d
00000200: 7599 c6bd 62a0 70bd 6d60 643c ee6c 8d3d
00000210: 1151 7ebd d16e c8bd 6ab3 ba3d 7626 b8bd
00000220: b8ca 49bd 85c8 14be d9e4 96bc 3e9e 2cbd
00000230: f771 213d 6a3f 8fbd 7848 f2bc 7c77 adbd
00000240: f658 293b 2907 11be 0bb5 b7bc cb08 dabd
00000250: 62c9 93bd 647b 913c e14f e7bc f427 f9bc
00000260: 5a67 fabd 0f03 e8bd 98d0 e7bd c7d1 883c
00000270: ae37 0cbd ee04 a7bd 0044 aa3a 9fb0 12be
00000280: da17 c5bd 66c3 a43c 1b4d cabd 7765 e93c
00000290: 2bdc 06be 7663 bebd 7b64 8a3c cc43 ccbb
000002a0: 623b dfba 7a3f 06bd c618 05be be16 28bd
000002b0: 4392 08bd 70ab fabd cbb9 c0bd 4808 68bb
000002c0: e02d 12bd d12b 13be ee6e 42bd 9fd3 fbbd
000002d0: 105e 40bd 3bc8 1b3d afd0 5e3d 9e7a 01be
000002e0: 793f d8bd e0fc 4ebd d6c9 2fbd 0e3e 04bd
000002f0: fb66 adbc 6246 a2bd 02db 84bb 5280 23bd
00000300: 6106 d03c 5f9e 13be 0ad2 0dbd fe81 323d
00000310: a7cb e8bd 5953 bfbd e8f0 40bc b7e3 a3bd
00000320: 155c bfbc 5e8f 2abd 4730 fc3c 92bc 0a3e
00000330: 10b2 e23d 215b cfbd e4bd 51bc c1b8 783d
00000340: 4fe3 1e3e 3155 753d 8c7c b9bd 8a05 04be
00000350: 7b95 023e 9f9d c0bc a0c0 4e3d 9eba 83bb
00000360: 5f84 a3bd 33c7 9dbb d139 ef3d 852d d43d
00000370: 2004 debd 08d6 b3bd 8d5f 3e3c d348 2d3c
00000380: f4ce fa3d 676a 37bd ea75 8c3d ee8f 03be
00000390: 5624 f6bb e7ce 0e3d 7df5 f13c 857a e9bd
000003a0: bf90 113d ffa5 bfbd 8724 023d b028 0b3e
000003b0: 00d7 983d 378a 3a3d ed82 87bd 1f83 11bc
000003c0: 4d9e e53b 0ce8 8cbd 288e fabd 5fdc 84bc
000003d0: 1c42 a43d d52c f2bc ba39 a63d 6178 af3d
000003e0: 2eca 433b 2277 9e3d 86e4 43bd a3fb 0c3c
000003f0: f988 623d b33f 083e 03e0 65bd e927 eabc

linear.weight f4 [10, 100]
-0.027092455 -0.10174561 0.080380194 0.012580004 -0.17286725 -0.05464343 0.13527228 0.0030810777
-0.14274764 0.10869879 0.07957643 0.09882713 -0.18300173 0.03326808 -0.13583088 -0.1823184
0.06521188 0.021872118 0.031648923 -0.073950425 0.048932478 0.1103205 -0.117599495 -0.17011462
-0.18988429 0.12330914 -0.09937972 -0.054683868 0.017645642 -0.06820152 0.048212003 0.07756849
0.09005027 0.0733897 -0.08261419 -0.12942289 -0.009842974 -0.02546783 -0.09613748 0.0766323
-0.09268268 -0.14335768 0.1026617 0.0602966 -0.090484746 0.15928304 -0.063006915 -0.00088687707
-0.20736593 0.01731027 -0.19169456 -0.15847401 0.21424466 0.0030351605 0.015553094 0.108178005
0.048772532 0.17477421 -0.012816588 0.14174919 -0.047936544 0.13372612 0.15504918 -0.02328054
-0.07509211 -0.020774305 -0.075011544 0.06649383 0.026831338 0.20027179 0.054689225 0.093897775
0.18361187 0.15540238 -0.2353779 0.06977245 0.14102456 -0.10215147 0.032207493 -0.10260883
0.027993359 0.035762306 0.15556847 -0.0739302 0.17256919 0.034502737 0.040189713 0.11461544
-0.04826434 -0.18370794 0.07934579 0.21950977 0.08310322 -0.007955784 0.16369547 0.063496955
-0.15473686 0.10256131 0.10167904 0.14912339 0.0051872493 0.019047333 0.09894162 0.0541346
-0.08579328 -0.18886068 0.18948895 -0.18847115 -0.1340263 0.12795302 0.031747714 0.07131394
-0.12998496 0.107601605 -0.09881458 -0.10074181 0.17818254 0.027490215 -0.129106 -0.13712691
0.10220989 0.19471031 -0.17595758 -0.052549317 -0.18319508 0.0881321 -0.21396357 -0.15204678
0.09073274 -0.11142232 -0.015510014 0.12250926 0.18124 0.022266848 -0.11321912 -0.20586011
-0.07808811 -0.06382074 0.023806542 0.0042885384 -0.0008757713 -0.18209542 0.08559622 0.037119634
-0.08862042 0.09419004 -0.08873206 0.12083893 -0.07378034 0.02350686 -0.006404109 -0.20955685
0.17228708 -0.15236248 0.12807995 0.11578062 0.06865944 0.036700476 0.051994514 0.09303691
-0.064583905 0.09390721 0.007893316 0.10659383 -0.15572676 0.012077185 -0.026028711 0.18074214
-0.067759104 0.18541303 0.13210282 0.027909951 0.20018236 0.04612918 -0.06344018 0.026137404
0.048854534 -0.09086173 0.027156442 -0.16413748 0.082587704 -0.087678425 0.12769844 -0.041177172
-0.0014880175 0.13312262 0.17292264 0.0397799 -0.18460312 -0.12692827 0.10854597 0.14708963
0.17807631 0.05922426 0.16641697 0.023225844 -0.08440649 0.09234313 0.053611282 0.015523521
0.13053894 0.17760955 -0.1996686 -0.17301653 0.04367988 0.10106102 -0.20757951 0.16956183
0.09565447 -0.01213964 -0.01092257 -0.13139713 0.15039875 -0.085776515 0.16352913 0.050352413
-0.04010628 -0.025267271 0.02600822 -0.037720624 -0.11703109 -0.20566007 0.18543808 0.20915334
0.06346274 -0.18023734 0.10531076 0.046245247 -0.09832097 0.10984592 0.035262376 -0.096794754
-0.032162815 -0.024001366 0.112503305 0.17273094 0.014720168 -0.025290625 0.0456305 -0.048723657
-0.054346528 0.06347553 -0.14427266 0.022292621 0.1731232 -0.08951427 0.042031284 -0.042577244
0.0818021 -0.0056610424 0.0221701 0.16768754 -0.016691307 0.18321823 -0.041022748 -0.03822505
00000000: fff0 ddbc 0160 d0bd 5f9e a43d 5c1c 4e3c
00000010: 1d04 31be cad1 5fbd d184 0a3e e8eb 493b
00000020: 702c 12be 799d de3d f8f8 a23d e165 ca3d
00000030: ce64 3bbe 1c44 083d 4017 0bbe adb1 3abe
00000040: ce8d 853d 282d b33c 4da2 013d 5273 97bd
00000050: 6c6d 483d b7ef e13d 01d8 f0bd 8732 2ebe
00000060: 0771 42be 8189 fc3d 9887 cbbd 31fc 5fbd
00000070: 988d 903c 3dad 8bbd f379 453d 3adc 9e3d
00000080: 476c b83d 574d 963d a131 a9bd 6f87 04be
00000090: 6d44 21bc e9a1 d0bc bae3 c4bd 65f1 9c3d
000000a0: 6bd0 bdbd 5bcc 12be 4c40 d23d 91f9 763d
000000b0: 1150 b9bd 181b 233e c509 81bd 507d 68ba
000000c0: bc57 54be 44ce 8d3c 944b 44be 0347 22be
000000d0: f462 5b3e 8be9 463b 68d2 7e3c 6e8c dd3d
000000e0: b5c5 473d 03f8 323e abfc 51bc b326 113e
000000f0: 1c59 44bd 80ef 083e 36c5 1e3e d5b6 bebc
00000100: e4c9 99bd e02e aabc a79f 99bd eb2d 883d
00000110: 65cd db3c 0c14 4d3e cf01 603d 7a4d c03d
00000120: c004 3c3e cd21 1f3e e706 71be dce4 8e3d
00000130: be68 103e ca34 d1bd 01ec 033d 9424 d2bd
00000140: 5452 e53c 7f7b 123d 574d 1f3e b768 97bd
00000150: fab5 303e be52 0d3d f89d 243d 80bb ea3d
00000160: d4b0 45bd ef1d 3cbe 0c80 a23d 2bc7 603e
00000170: 0532 aa3d fa58 02bc c99f 273e b10a 823d
00000180: 5773 1ebe aa0b d23d 1a3d d03d cdb3 183e
00000190: cdf9 a93b 2709 9c3c e7a1 ca3d 3ebc 5d3d
000001a0: 63b4 afbd b264 41be 6409 423e 95fe 40be
000001b0: 313e 09be 1e06 033e e409 023d 0b0d 923d
000001c0: c71a 05be 3b5e dc3d 4c5f cabd b951 cebd
000001d0: 7c75 363e 2933 e13c 5d34 04be ff6a 0cbe
000001e0: 6b53 d13d 2462 473e 392e 34be f43d 57bd
000001f0: 7e97 3bbe 9a7e b43d 4419 5bbe 27b2 1bbe
00000200: 16d2 b93d 6331 e4bd b71d 7ebc 23e6 fa3d
00000210: fb96 393e f768 b63c 6ddf e7bd fecc 52be
00000220: a9ec 9fbd 73b4 82bd f005 c33c de86 8c3b
00000230: 0494 65ba 3977 3abe 124d af3d c20a 183d
00000240: 9f7e b5bd b5e6 c03d 27b9 b5bd 677a f73d
00000250: 261a 97bd 7591 c03c 8fd9 d1bb 1296 56be
00000260: 066c 303e e904 1cbe 6427 033e 641e ed3d
00000270: 529d 8c3d 3d53 163d 33f8 543d 238a be3d
00000280: 9144 84bd 6c52 c03d f852 013c de4d da3d
00000290: d676 1fbe 63df 453c 2a3a d5bc 7814 393e
000002a0: 49c5 8abd eadc 3d3e f645 073e 69a3 e43c
000002b0: 9bfc 4c3e f3f1 3c3d edec 81bd 1c1e d63c
000002c0: b11b 483d b715 babd 3077 de3c a813 28be
000002d0: be23 a93d bf90 b3bd 61c3 023e 65a9 28bd
000002e0: 9509 c3ba 4c51 083e a212 313e 40f0 223d
000002f0: 9a08 3dbe 7cf9 01be 594d de3d aa9e 163e
00000300: a359 363e 2395 723d 3669 2a3e 2044 be3c
00000310: 4fdd acbd 651e bd3d 8197 5b3d 5e56 7e3c
00000320: 00ac 053e 47df 353e ed75 4cbe 3f2b 31be
00000330: ade9 323d 14f9 ce3d b98f 54be 9ea1 2d3e
00000340: 7ee6 c33d 57e5 46bc 94f4 32bc f88c 06be
00000350: 2102 1a3e 99ab afbd 2e74 273e 553e 4e3d
00000360: 7c46 24bd 4ffd cebc 310f d53c f180 1abd
00000370: ffad efbd 8e98 52be 7be3 3d3e 4b2c 563e
00000380: c1f8 813d 2390 38be 2bad d73d a86b 3d3d
00000390: 815c c9bd e6f6 e03d 486f 103d 543c c6bd
000003a0: 28bd 03bd 839e c4bc 2268 e63d 61e0 303e
000003b0: dc2c 713c 492e cfbc 0ce7 3a3d 7592 47bd
000003c0: 779a 5ebd 75ff 813d 36bc 13be 049f b63c
000003d0: 3547 313e 4253 b7bd ff28 2c3d 7a65 2ebd
000003e0: dc87 a73d 4480 b9bb 129e b53c 48b6 2b3e
000003f0: 35bc 88bc 8f9d 3b3e 7807 28bd df91 1cbd

linear.bias f4 [10]
0.009727924 -0.0049084025 0.03947234 0.009465807 -0.0058785547 -0.083567776 -0.06167602 0.10490455
-0.038016133 -0.04609159
00000000: df61 1f3c aad6 a0bb c0ad 213d 7916 1b3c
00000010: e4a0 c0bb 9525 abbd ff9f 7cbd 32d8 d63d
00000020: ceb6 1bbd 89ca 3cbd

rnn1.weight_ih f4 [300, 4]
0.031079764 -0.009090348 0.049701516 -0.071691185 -0.21338704 0.044323757 -0.04498199 0.21493785
-0.101855926 -0.024968015 -0.095577925 -0.0494247 0.14386623 0.003969008 0.10067869 -0.050695717
0.038628627 -0.076414615 0.0452554 -0.10744714 0.028581602 0.0716424 0.0038186316 -0.008795359
0.05841853 -0.13484094 0.11361048 0.06620172 -0.09600961 0.104158476 -0.06925987 0.08894497
-0.00023742307 0.114058495 0.007889547 -0.03778367 -0.031047978 0.0657246 0.005581596 -0.118301906
-0.124493346 0.10780097 -0.009385861 -0.007761711 0.04576347 -0.07999161 0.064810924 0.0016453024
-0.011801876 0.051930983 -0.09856992 -0.03669281 -0.088751756 0.036966596 0.0016741799 -0.0063703144
0.0047252453 -0.050938774 0.06628347 -0.071699604 -0.12672023 -0.092155695 0.062991664 0.12206755
0.014272257 -0.033648945 0.08379946 0.11980497 -0.01309687 0.020568153 -0.04638333 -0.09831929
-0.056806106 0.095553055 -0.015535556 0.11480722 -0.007929795 0.028616251 0.15239203 -0.1326687
-0.06314051 -0.067787275 0.0993551 0.09293025 0.037390415 0.032364514 0.011247619 0.035613976
0.02709049 0.10098756 -0.12730034 0.041950203 -0.03614993 -0.08150691 0.037719335 0.040375512
0.029560464 0.14982583 -0.15203974 -0.08938233 -0.05578681 0.1131918 -0.025751201 0.09725269
0.011201384 -0.029798519 0.00979615 0.051275093 -0.04922205 0.04904947 -0.019340971 -0.024680281
0.0937015 -0.13727422 0.16122572 -0.07599285 -0.08814163 0.025406117 0.006865695 -0.017984627
-0.025834685 0.060928717 0.02354209 0.0151372915 -0.050004933 -0.029415546 0.051269505 -0.072438635
0.08016836 -0.062172633 0.03965005 -0.07518838 0.00437841 -0.078270644 -0.10822938 -0.121517606
-0.22803256 0.13383684 0.021759644 0.18522672 -0.015104595 -0.0370432 -0.005177723 0.03313397
-0.015370203 -0.03466187 -0.051423125 -0.053499576 0.085036665 0.08616072 -0.056573827 0.00091485
0.017873524 0.06945415 0.04656817 -0.093871035 -0.0062819095 0.03967645 0.10501945 0.060314707
-0.08912233 0.07282299 -0.048394267 0.13656043 0.041675676 -0.04583538 -0.02524786 -0.07281367
-0.03322636 0.04027571 0.07807492 -0.042294484 0.1320637 -0.09410777 -0.021658553 0.06806878
-0.05319931 0.014058481 0.037954267 -0.0052403547 -0.0034896412 0.16669522 -0.045054603 -0.060466483
0.012348023 0.0015753123 -0.06272235 -0.09479665 0.03295604 -0.09331344 0.041613463 -0.00509635
-0.013812345 0.022599036 -0.12500647 0.05932893 -0.00023568484 -0.013190554 0.10667505 -0.107048646
-0.1565535 -0.020411251 0.013590987 0.015503053 0.015863538 -0.015709672 -0.095751725 -0.052805673
0.055340733 0.025496472 -0.08860782 0.03362963 0.06157499 0.03878612 0.0574884 0.033705775
0.045651548 -0.041212976 0.01149175 -0.0986218 0.05964964 0.02204784 0.025144437 -0.06385048
0.08734021 0.065317966 0.021606812 -0.08132231 0.03243596 0.02512796 0.04740655 -0.037721973
-0.0043478687 0.053680345 0.07128821 0.10254125 -0.03765307 -0.043573618 -0.07634638 0.032880664
0.07798826 -0.08583544 0.062046237 -0.11330228 0.035489153 0.13751857 -0.094900385 -0.015171572
-0.010144952 -0.03803082 0.017135808 -0.030212093 0.06181554 -0.102386065 0.026702521 -0.047819246
00000000: fd9a fe3c afef 14bc d193 4b3d d4d2 92bd
00000010: 2282 5abe d48c 353d 093f 38bd ab18 5c3e
00000020: d799 d0bd b989 ccbc 5cbe c3bd 8e71 4abd
00000030: ab51 133e 740e 823b a130 ce3d 50a6 4fbd
00000040: 0d39 1e3d 447f 9cbd ba5d 393d 3f0d dcbd
00000050: f723 ea3c 40b9 923d 0242 7a3b 691a 10bc
00000060: 4548 6f3d be13 0abe 9dac e83d c494 873d
00000070: b0a0 c4bd 0a51 d53d 1ed8 8dbd c828 b63d
00000080: c5f4 78b9 8097 e93d 2943 013c 0dc3 1abd
00000090: 5458 febc 9e9a 863d d2e5 b63b 4548 f2bd
000000a0: 5ef6 febd c1c6 dc3d 28c7 19bc f355 febb
000000b0: 7a72 3b3d a4d2 a3bd 97bb 843d 30a7 d73a
000000c0: a85c 41bc 95b5 543d 07df c9bd 334b 16bd
000000d0: 7bc3 b5bd 496a 173d 2870 db3a 12be d0bb
000000e0: 3bd6 9a3b 2da5 50bd a1bf 873d 3ed7 92bd
000000f0: f3c2 01be 20bc bcbd c601 813d 8dfe f93d
00000100: 2fd6 693c 7ad3 09bd 0d9f ab3d 4f5c f53d
00000110: 4194 56bc 8b7e a83c 72fc 3dbd a05b c9bd
00000120: 85ad 68bd 52b1 c33d d888 7ebc 0c20 eb3d
00000130: f9eb 01bc a16c ea3c a80c 1c3e 4eda 07be
00000140: d04f 81bd 0ed4 8abd b07a cb3d 3752 be3d
00000150: b126 193d a790 043d ef47 383c f6df 113d
00000160: e0ec dd3c 91d2 ce3d 055b 02be fad3 2b3d
00000170: f311 14bd 18ed a6bd 977f 1a3d cb60 253d
00000180: c928 f23c f16b 193e 4eb0 1bbe 150e b7bd
00000190: b680 64bd 1ad1 e73d 2ff4 d2bc 6b2c c73d
000001a0: 0286 373c 061c f4bc 0880 203c d505 523d
000001b0: 0f9d 49bd 19e8 483d f570 9ebc 4d2e cabc
000001c0: 92e6 bf3d 9d91 0cbe 5b18 253e 24a2 9bbd
000001d0: 9983 b4bd 7d20 d03c a0f9 e03b 7f54 93bc
000001e0: 43a3 d3bc 6490 793d 57db c03c 6702 783c
000001f0: f9d1 4cbd dff8 f0bc f9ff 513d b55a 94bd
00000200: 4f2f a43d bba8 7ebd 1768 223d 5efc 99bd
00000210: c478 8f3b 5c4c a0bd 5da7 ddbd 39de f8bd
00000220: 5e81 69be 860c 093e 4841 b23c 13ac 3d3e
00000230: 4379 77bc 9cba 17bd e3a9 a9bb 7cb7 073d
00000240: 4ed3 7bbc 9bf9 0dbd 0ea1 52bd 5f22 5bbd
00000250: b427 ae3d 0875 b03d f5b9 67bd 8bd2 6f3a
00000260: 7f6b 923c fa3d 8e3d 44be 3e3d 753f c0bd
00000270: 7ad8 cdbb c683 223d 7014 d73d 8e0c 773d
00000280: c585 b6bd 3824 953d 1139 46bd 7fd6 0b3e
00000290: 1db4 2a3d e1bd 3bbd 9ad4 cebc 551f 95bd
000002a0: 5d18 08bd 25f8 243d bee5 9f3d fb3c 2dbd
000002b0: b53b 073e 93bb c0bd 476d b1bc a567 8b3d
000002c0: 85e7 59bd 8b55 663c ef75 1b3d 48b7 abbb
000002d0: 77b2 64bb 27b2 2a3e 2d8b 38bd b4ab 77bd
000002e0: 5d4f 4a3c b67a ce3a 9374 80bd bf24 c2bd
000002f0: eafc 063d 1e1b bfbd e172 2a3d 48ff a6bb
00000300: 2d4d 62bc 9d21 b93c b201 00be e402 733d
00000310: 2b22 77b9 321d 58bc 7378 da3d 523c dbbd
00000320: 904f 20be 7f35 a7bc bbac 5e3c 8400 7e3c
00000330: 40f4 813c 92b1 80bc 7b19 c4bd c34a 58bd
00000340: f7ac 623d fadd d03c 0478 b5bd 39bf 093d
00000350: 0f36 7c3d 32de 1e3d f578 6b3d 110f 0a3d
00000360: 1efd 3a3d f0ce 28bd e547 3c3c 3afa c9bd
00000370: 2e53 743d ac9d b43c b5fb cd3c 0ac4 82bd
00000380: 6ddf b23d 6dc5 853d c500 b13c 508c a6bd
00000390: 92db 043d 27d9 cd3c 5f2d 423d 5b82 1abd
000003a0: 9178 8ebb ecdf 5b3d 8eff 913d 2601 d23d
000003b0: 1b3a 1abd 407a 32bd 7e5b 9cbd e0ad 063d
000003c0: 4fb8 9f3d 7eca afbd 3224 7e3d 070b e8bd
000003d0: 135d 113d abd1 0c3e 225b c2bd 2f92 78bc
000003e0: 0337 26bc 35c6 1bbd 6560 8c3c 5a7f f7bc
000003f0: 4b32 7d3d c9af d1bd 3fbf da3c 1dde 43bd

rnn1.weight_hh f4 [300, 100]
0.17430618 -0.069576405 -0.11005908 0.080702506 -0.0012850494 -0.155887 -0.11047845 -0.10166076
-0.08313691 -0.016143097 0.07839333 -0.075236715 0.15546311 0.077672444 -0.04128512 -0.02550944
0.018119518 0.1757962 0.138988 0.06987989 0.08971357 -0.004322028 -0.025835384 0.12349794
-0.16765136 0.048658706 0.029923871 -0.095988266 -0.06553712 0.08259263 -0.07407826 0.119829625
-0.07131201 0.027567144 0.14580363 -0.026791584 -0.062479004 -0.10036296 0.0043804045 0.0067766937
0.12217604 0.042189088 -0.028086282 0.030646423 0.14241749 -0.075227715 0.1402511 -0.13216192
-0.05416443 -0.2058589 0.02424876 -0.027370527 -0.04232846 -0.037819706 -0.13688383 -0.08108924
0.09285038 0.05854499 -0.060817547 -5.931585e-05 0.030721312 -0.05818814 0.021567086 -0.03051694
0.01288695 -0.090189 -0.092045896 -0.043243125 0.018120708 -0.0016835231 -0.109988146 0.04467287
-0.014054602 -0.008641023 -0.03478289 0.012112964 -0.024464164 -0.04643493 -0.123366475 0.0659077
0.09586034 -0.034359653 -0.007074245 0.046699047 -0.09106446 0.026867364 -0.0073100543 -0.04835259
-0.06550855 -0.04364301 -0.016896166 0.06563496 0.021042768 0.014505622 0.12779292 0.10367579
-0.10011572 0.03791459 -0.046431053 -0.017878322 -0.027266394 -0.003341484 -0.0013396882 0.026794221
-0.03232012 -0.008375754 0.10798139 0.049157094 0.019771399 -0.032305855 -0.15821292 0.06948115
-0.06670928 0.046879433 -0.021310793 0.038770985 -0.040876634 0.00041125534 -0.12593292 -0.10401267
0.067771725 -0.030836452 -0.06596197 -0.010322431 0.055195075 -0.057679214 0.05593284 0.04819759
-0.061423697 -0.0741653 0.049048983 -0.14223243 -0.0831615 -0.005632914 -0.1792218 0.045146886
-0.086971715 -0.0024159527 0.0919123 0.01424761 -0.057843532 0.01055257 -0.15638505 -0.151314
0.04316092 -0.031897437 -0.017062329 -0.008951512 -0.050969955 -0.013943884 -0.06623828 0.16225259
0.082258426 0.016279198 -0.055148557 0.0813161 0.07039947 0.08749553 0.07283661 -0.067896955
-0.059663933 0.11285884 0.0013645664 0.04282247 -0.031696558 0.11888205 0.067682326 0.10190821
0.05210799 -0.004753167 -0.005795619 0.010505781 0.13781986 0.04832371 -0.065098226 0.071311794
0.15124592 0.07009391 0.054702304 -0.07006678 -0.0080743125 0.047193002 0.069109395 -0.07116845
0.112142764 0.017716523 0.069938645 -0.04125322 0.0032438377 -0.07461523 -0.0479198 0.014841442
-0.13304201 0.091286555 -0.082567066 -0.052228514 -0.019405417 -0.015759958 0.0107880235 -0.04567055
-0.099964514 -0.0011151866 0.07465237 0.03981754 0.08598282 -0.09202517 -0.007914832 -0.12032832
0.062364772 0.045860186 0.08183668 -0.015556076 0.008842571 0.046824425 -0.0843223 0.024067082
0.039444834 -0.012592755 -0.0031998155 0.0910673 0.0024770512 -0.0006944416 -0.007414113 0.014360078
0.015908435 0.06558736 0.07118395 0.0074872123 0.10213058 -0.0061684595 -0.029260965 0.039778862
-0.036887128 0.040215332 -0.051582117 0.13486992 -0.045117345 0.010311986 -0.066760264 -0.015070526
-0.08700373 -0.025493247 0.006071462 -0.09003122 0.0029174949 -0.024849966 0.028692126 0.008554053
-0.046936996 0.03864255 0.022138778 -0.044953145 -0.031453263 0.043887034 -0.079136364 0.050996065
00000000: 527d 323e 137e 8ebd a866 e1bd 5b47 a53d
00000010: 1a6f a8ba d7a0 1fbe 8742 e2bd 8433 d0bd
00000020: af43 aabd 873e 84bc af8c a03d b515 9abd
00000030: b931 1f3e bb12 9f3d 961a 29bd 2cf9 d0bc
00000040: 626f 943c eb03 343e df52 0e3e 301d 8f3d
00000050: c0bb b73d cc9f 8dbb baa4 d3bc 7dec fc3d
00000060: ccac 2bbe 5a4e 473d e822 f53c 7f95 c4bd
00000070: 5338 86bd 5326 a93d 58b6 97bd 3c69 f53d
00000080: 080c 92bd 7ed4 e13c 8c4d 153e 067a dbbc
00000090: fce9 7fbd 188b cdbd 7f89 8f3b 070f de3b
000000a0: 6f37 fa3d 77ce 2c3d 3415 e6bc 350e fb3c
000000b0: e4d5 113e fd10 9abd fc9d 0f3e 7455 07be
000000c0: 85db 5dbd adcc 52be 56a5 c63c 2838 e0bc
000000d0: 9b60 2dbd d6e8 1abd 462b 0cbe 1e12 a6bd
000000e0: 5728 be3d dfcc 6f3d d21b 79bd e9c9 78b8
000000f0: 43ab fb3c b056 6ebd 75ad b03c a9fe f9bc
00000100: c923 533c 03b5 b8bd 8f82 bcbd b41f 31bd
00000110: e171 943c a9a9 dcba 7741 e1bd e6fa 363d
00000120: 4645 66bc 1493 0dbc 8178 0ebd 7475 463c
00000130: 1269 c8bc 8e32 3ebd 90a7 fcbd 9efa 863d
00000140: 6d52 c43d b5bc 0cbd 11cf e7bb 8047 3f3d
00000150: 0180 babd f218 dc3c 2e89 efbb 5e0d 46bd
00000160: 5929 86bd 03c3 32bd d469 8abc 9f6b 863d
00000170: e261 ac3c fda8 6d3c 26dc 023e f953 d43d
00000180: 7809 cdbd 544c 1b3d 7d2e 3ebd 8f75 92bc
00000190: c65d dfbc cdfc 5abb 7a98 afba 8e7f db3c
000001a0: 1a62 04bd 753a 09bc 5925 dd3d f358 493d
000001b0: a1f7 a13c 2553 04bd 9102 22be 224c 8e3d
000001c0: e09e 88bd a604 403d f993 aebc 53ce 1e3d
000001d0: 426e 27bd c29d d739 8ff4 00be 9804 d5bd
000001e0: e7cb 8a3d ba9c fcbc 1217 87bd 6a1f 29bc
000001f0: 3b14 623d 0a41 6cbd d519 653d d66a 453d
00000200: 6a97 7bbd fae3 97bd 96e7 483d 61a5 11be
00000210: 9450 aabd 4f94 b8bb eb85 37be f1eb 383d
00000220: 3a1e b2bd f654 1ebb 843c bc3d cf6e 693c
00000230: 57ed 6cbd b0e4 2c3c 6723 20be 0ff2 1abe
00000240: 81c9 303d e3a6 02bd 4cc6 8bbc 5da9 12bc
00000250: dfc5 50bd e374 64bc efa7 87bd 8b25 263e
00000260: 1b77 a83d f45b 853c 74e3 61bd 0e89 a63d
00000270: 992d 903d db30 b33d 5c2b 953d 8f0d 8bbd
00000280: 2b62 74bd 8922 e73d 40db b23a 9d66 2f3d
00000290: 40d4 01bd 6f78 f33d 089d 8a3d 40b5 d03d
000002a0: 306f 553d 74c0 9bbb 2de9 bdbb 7020 2c3c
000002b0: a620 0d3e 15ef 453d 3852 85bd eb0b 923d
000002c0: 36e0 1a3e 658d 8f3d 860f 603d 2c7f 8fbd
000002d0: 1f4a 04bc 734d 413d 3a89 8d3d c4c0 91bd
000002e0: 1bab e53d 3e22 913c fe3b 8f3d 23f9 28bd
000002f0: 9196 543b dfcf 98bd 8d47 44bd 8529 733c
00000300: 2a3c 08be 72f4 ba3d ec18 a9bd 91ed 55bd
00000310: 1cf8 9ebc 071b 81bc 40c0 303c 0b11 3bbd
00000320: 32ba ccbd 742b 92ba 57e3 983d b817 233d
00000330: c317 b03d b177 bcbd 36ad 01bc b26e f6bd
00000340: 3472 7f3d e4d7 3b3d fd99 a73d e9de 7ebc
00000350: 6ee0 103c f8ca 3f3d 2cb1 acbd 5428 c53c
00000360: e890 213d d851 4ebc ffb3 51bb 7e81 ba3d
00000370: 0656 223b 300b 36ba 16f2 f2bb 8846 6b3c
00000380: 6852 823c aa52 863d e4c8 913d 4a57 f53b
00000390: d629 d13d ca20 cabb b1b4 efbc 29ef 223d
000003a0: f516 17bd d5b8 243d c547 53bd 571b 0a3e
000003b0: f7cc 38bd 9bf3 283c 9bb9 88bd 5eea 76bc
000003c0: 032f b2bd 37d7 d0bc 1df3 c63b 4a62 b8bd
000003d0: 7133 3f3b 2892 cbbc c00b eb3c 4c26 0c3c
000003e0: 0241 40bd a747 1e3d 625c b53c ca20 38bd
000003f0: 23d5 00bd e4c2 333d 3f12 a2bd 40e1 503d
